Python/model.tflite (tflite, 494092 bytes, 10 tensors)

sequential_1/conv2d_3/BiasAdd/ReadVariableOp f4 [32]
00000000: 967f a63d 7454 f6bc 18f5 a0be 5799 73bb
00000010: 5d11 d2bc 453b e13d 462b 20bc ffc3 d53c
00000020: f1f2 20bc 673f a73c 5614 fc3d ce44 40be
00000030: 9bb6 cb3e 067d 033d a9d1 87bd 751a 1b3c
00000040: a3b8 e9bd d305 a83c db83 843d ddff 943b
00000050: bfa5 013e efac 95be 2a33 683c e57c 51bb
00000060: e1be 163d 9685 aebe 54f6 863c 3a02 09bd
00000070: 0eae aebb c774 62bd ebb6 683d 2f62 463d
0.08129804 -0.030069567 -0.31436992 -0.0037170255 -0.025643045 0.10997633 -0.009775942 0.026094435
-0.009823547 0.020415975 0.12308566 -0.18776247 0.39787754 0.032101654 -0.066317864 0.009466757
-0.1141217 0.02051059 0.06470462 0.004547103 0.12660883 -0.292335 0.014172355 -0.0031965312
0.03680313 -0.34086293 0.01647488 -0.03344939 -0.0053308075 -0.05528715 0.05681507 0.04843348

sequential_1/conv2d_4/BiasAdd/ReadVariableOp f4 [64]
00000000: e07f 59bd 9804 00bd f2de cf3d 6934 f2bd
00000010: 4678 c13d 2edb 60be cdb4 2fbd e94a 033e
00000020: 3142 983b d681 ffbd 698d 28be 0467 7cbd
00000030: b0a3 77be cd50 22bd a608 0dbb 287c 25bd
00000040: 4aaf bb3d a2b5 83bc f50f 02be ba04 873d
00000050: 0fc3 bbbd 9eca f8bc c558 08bd a6ed 33be
00000060: f790 a3be d69b 6d3c 64ac bbbd 03ce ea3d
00000070: e965 3bbd ca97 1abd 54b1 533c e6f3 bbbd
00000080: 5974 a03d 8916 2e3c 04eb de3d 58af 0cbd
00000090: c570 203e 8ab6 97bd 1974 7cbe 82bb 353c
000000a0: 7212 5b3d 70f3 6ebd 1f02 9a3d 6066 023d
000000b0: 5c8b 373e 6914 053f 068b ab3d 67b8 383d
000000c0: 965b 0a3e ee95 22bd f999 74bd 2fa8 0c3c
000000d0: f4b4 bcbd f9e5 5a3e 410a cb3b 61ec ac3e
000000e0: 18b5 a3bc 5e39 efbd bf1e 083e 7692 a93e
000000f0: 5db4 4dbd 3fc3 d0ba c7bf 8abc 040b 2bbe
-0.053100467 -0.03125438 0.10149945 -0.11826403 0.094467685 -0.2195861 -0.042897034 0.12821545
0.0046465625 -0.12475936 -0.16460194 -0.06162168 -0.24183536 -0.03962784 -0.0021520047 -0.040401608
0.09164293 -0.01607782 -0.127014 0.065926984 -0.09168064 -0.030370053 -0.033287782 -0.17571124
-0.31946537 0.014502486 -0.0916374 0.11465075 -0.045751486 -0.037742414 0.012920696 -0.09177379
0.078346916 0.01062549 0.108846694 -0.03434691 0.15668018 -0.074078634 -0.24653663 0.011092069
0.053484388 -0.05833763 0.07519936 0.031835914 0.17924255 0.5198427 0.08376126 0.045097735
0.135115 -0.039693765 -0.059717152 0.00858502 -0.092142016 0.2137679 0.0061962907 0.33774093
-0.019983813 -0.11680864 0.13292979 0.33119553 -0.050220836 -0.0015927328 -0.01693715 -0.16703421

sequential_1/conv2d_5/BiasAdd/ReadVariableOp f4 [64]
00000000: 8825 463c 7f23 ac3d 80df b83e ead6 12bc
00000010: c8d1 a0bd bd7d d1bc 554b cf3e 88a5 50bd
00000020: 3485 35bd 60c2 e73d c439 a2be 2062 ea3d
00000030: 7ecf c53c 3240 e6bd cc5c 313d c39b 5ebe
00000040: 2c39 163e 3e5b ff3e 2e83 863e 6a48 f9bc
00000050: 6a26 95bc d057 e33d 81ea 4cbd e2d6 91be
00000060: 54fd 79bd 7ac5 07bd b301 cf3e bd15 3dbd
00000070: 5919 d6bc bfa2 81be 72ae cdbd 236a a3bd
00000080: 2319 5e3a 47a5 453e 1a53 06bd 17d0 c03d
00000090: 10df 633e eddd 823c 4d4d fbbd 3c79 d13b
000000a0: 8bd4 30bd ae77 933e bcc3 60bd c6bf 02bd
000000b0: 0550 e7bc 6343 8f3e 2f7f 0abd 8633 03bd
000000c0: af39 433e cff2 02bd 7906 ca3e 6305 ad3d
000000d0: 9f11 35be cf9e 8a3e b73f cabb 9b99 23be
000000e0: 186b 84bc 39ea 94bc 5016 dabd 8fbf edbb
000000f0: b599 873e 1160 bc3e 32a3 b33e 77e3 8f3e
0.012093909 0.08405208 0.36108017 -0.008962372 -0.078525126 -0.025572652 0.4048716 -0.050939113
-0.044316486 0.11316371 -0.31684697 0.11444497 0.024146792 -0.11242713 0.04330139 -0.21739106
0.14670247 0.498743 0.26271957 -0.030430038 -0.018206794 0.11100733 -0.050028328 -0.28484255
-0.06103261 -0.033147313 0.40430984 -0.04616331 -0.026135134 -0.25319478 -0.100430384 -0.07979228
0.00084723736 0.1930133 -0.032794096 0.0941469 0.2225306 0.015974963 -0.12270603 0.006392626
-0.043171447 0.28802246 -0.054874167 -0.03192117 -0.028236398 0.279811 -0.033812698 -0.03203156
0.19064973 -0.03196984 0.39458063 0.08448293 -0.17682503 0.27074286 -0.006172146 -0.15976565
-0.016164348 -0.018178092 -0.10648787 -0.0072555016 0.26484457 0.36792043 0.35085446 0.2810323

sequential_1/conv2d_3/Conv2D f4 [32, 3, 3, 3]
00000000: f403 29be 4ff7 58be d278 11be 98a8 1b3e
00000010: f192 093e b6df 37bc 1bca 6cbe cd05 3fbe
00000020: 0d01 23be e009 3bbe aee9 dcbd 1bd9 80bc
00000030: 6334 913e b6e8 d03e 0f65 b43e 10db d0bd
00000040: 9c42 393c 9672 dd3a 8c91 36be 2a7f 55be
00000050: 770b b8bc c816 833e 9313 be3e 7e1b 323e
00000060: 07a5 82be 8687 86be 0a52 01be ce99 883e
00000070: fdf7 29be b414 3cbe 01f3 933e c1be 85be
00000080: afce e2bd f5a7 b23e 23fb 66be a467 08bd
00000090: c0f8 20be 6247 a1be 77a1 a03d 6afd a9bd
000000a0: 0298 14be 1e1d 1cbe 8c27 f33d ac89 8fbe
000000b0: 62a9 493d 1fd9 26be 7a59 9a3c 3af3 943e
000000c0: c33d 0abe 8cce 163e 36ef a53e 3609 a13d
000000d0: d37b 1bbd c20f 4e3e 3a26 9dbd a81f 95be
000000e0: ce4b 07be dfad 6cbe c985 cabd 1546 4fbd
000000f0: d5cb 0bbc 3e8f ca3d 7a52 303e ca5f bfbd
00000100: 22fe dbbd 2f24 87be dfc8 543e 4c08 f03c
00000110: b308 61bd bcd6 4f3e 67a7 853d a0ab 333e
00000120: 291a a33d 2fb1 70bd f2d8 343c e525 803e
00000130: 6ec3 363e 7252 10bc 2c77 8a3e 6125 5d3e
00000140: 45f9 583d bd9e 4fbe 3aad 5dbe 5933 85be
00000150: 7709 12be 5232 7dbe a8fd 9abe 627a dbbd
00000160: 0f44 26be 133b 2ebe c5ff 9cbc 2147 e7bd
00000170: cda1 97bd 32f2 2a3e 90b7 a93d 511e 2a3e
00000180: 1da6 803e cd07 a33e 2347 3b3e 8ab6 713e
00000190: 0e6c 673e 945b 583e 3d6d 943d 77cd 583d
000001a0: 1bdd 2e3e 80a3 eebd e118 aabd 7674 5b3d
000001b0: 021c 563e c994 e03d 3b85 8c3e 7b29 633e
000001c0: 3659 7a3e 6226 483e e38c 4a3c 38e1 0b3e
000001d0: 4e50 903e f3ab dabd 6d4e b4bd a978 823d
000001e0: 5840 6dbe 4c1f b5bc 40ac 57be 1c86 d5bd
000001f0: bd4d 39be a807 99bd 03fa 36be 9ecd f3bd
00000200: f8d0 0cbd 6009 873d 40d5 70be 511e 8bbe
00000210: 928b 353d 908d e53c 506c 1bbe b9ae 4abe
00000220: 5ec6 b43d 821b 863e 96ea 173e 2567 4e3e
00000230: cfd6 9b3e 5ee7 56be 4e04 09be fa17 e0bd
00000240: 9fa8 7dbe 25ae 98bd fe50 923c 2c64 23be
00000250: 7dc5 263e 84bb 953d 6ee3 293e e1ff 313e
00000260: 6bb1 263e 7dc5 43be b427 ecbd c9cb c03d
00000270: c461 9dbe a713 91be 7615 d23c 2be5 7abe
00000280: 25ab 02be 3984 0fbe 4a24 c3bd 87fb 15be
00000290: f717 24bd 1a0e 8d3e e570 9f3e f5d9 553e
000002a0: 0482 783d 7990 473e 80d3 d53b 6427 9abe
000002b0: 0249 8bbe 69ad 93be b215 91bd 18ca 2abe
000002c0: f1a5 38be 4ab0 823e 1c3d 763e d680 bd3e
000002d0: c921 043e 8a52 1cbc d692 3c3e 0281 92be
000002e0: 12e6 75be 0009 b8be 4824 45bc ef71 e63d
000002f0: 6772 a63d 3f44 513d 0cb9 713d 168d e4bc
00000300: 06b9 2d3e edfd 493e 8579 8c3d b41c 3f3e
00000310: 3722 373c ea01 8f3d 4564 28be 7f86 d4bd
00000320: c231 443d 1cc9 a83d 23f0 a43d a13a ae3d
00000330: 6a55 a43e 0c14 843d 3825 5e3e ae04 87be
00000340: a43f afbe b195 1bbe 2d35 48be fbbd 8abe
00000350: 7209 29be 7f18 e53c 2e09 62be 22ae 5ebd
00000360: 8986 6d3d df74 4fba b90a 973d 4680 26bc
00000370: b235 173c 2c3d 323e bf2d 19bd 9823 a0bd
00000380: 73c4 7fbd f4bb 23be 05e1 7dbe 3bbd a5be
00000390: d5f1 b9be c77f 93be 9667 64be 5ace 78bc
000003a0: 64b6 e1bd a7fc acbc 2fc5 933d 028f 8b3e
000003b0: 4d12 513e efe1 393e 6b1c 923e 7b21 123e
000003c0: 13ff f43d 08b0 603e 2f98 74bc 092e 77be
000003d0: af24 cabd 9e76 91be 37eb 42be ea1e eebd
000003e0: 73b2 96bd 8f61 2c3e 42f3 bb3d e0c3 043e
000003f0: 06f1 483e 9e76 053e c1c5 583e fc47 f5bd
-0.16505414 -0.2118809 -0.14206246 0.15201032 0.1343496 -0.01122277 -0.23123972 -0.18654557
-0.1591837 -0.18265486 -0.10786758 -0.015728524 0.2836028 0.40802544 0.35233352 -0.10198033
0.011307385 0.0016895111 -0.17828959 -0.2084929 -0.022466404 0.25603318 0.3712431 0.173933
-0.2551653 -0.2627527 -0.12628952 0.26679844 -0.16598506 -0.18367273 0.28896335 -0.26122096
-0.11074578 0.34893766 -0.22556739 -0.033301964 -0.1571989 -0.31499773 0.07843297 -0.08300288
-0.14511111 -0.15245482 0.11872777 -0.28034723 0.0492338 -0.16293763 0.018841494 0.29091817
-0.13500123 0.14727229 0.32409066 0.07863085 -0.037959885 0.20123199 -0.07673307 -0.29125714
-0.13212511 -0.23113202 -0.09888799 -0.050603945 -0.008532484 0.098906025 0.17218962 -0.09344442
-0.10741831 -0.26394793 0.20779751 0.029300831 -0.054939937 0.20296758 0.0652607 0.17545938
0.07963974 -0.058762725 0.011038052 0.2502891 0.17847988 -0.008808719 0.27044046 0.2159629
0.052972097 -0.20275398 -0.21648112 -0.26015738 -0.14261423 -0.24726227 -0.3027165 -0.10716702
-0.162369 -0.17014723 -0.01916493 -0.11292864 -0.07403908 0.16693953 0.08286965 0.16613127
0.25126734 0.3184189 0.18288855 0.2360479 0.22599813 0.21128684 0.07247398 0.05293032
0.17076533 -0.11652279 -0.083055265 0.053577863 0.20909122 0.109658785 0.27445397 0.22183792
0.24448094 0.19545892 0.012362692 0.13660133 0.28186268 -0.10677328 -0.08804021 0.0637067
-0.23169076 -0.02210965 -0.21061802 -0.1042597 -0.18096061 -0.074721634 -0.1786881 -0.11904453
-0.034378976 0.06593585 -0.23518848 -0.27171567 0.044322558 0.028021604 -0.15178037 -0.19793214
0.08826898 0.26192862 0.14835581 0.20156534 0.30437323 -0.20986697 -0.13380548 -0.10942073
-0.24771355 -0.074550904 0.017860886 -0.15956181 0.16286273 0.073111564 0.16590664 0.17382766
0.16278617 -0.19118305 -0.1153101 0.09413869 -0.30738652 -0.28335306 0.025644999 -0.24501483
-0.12760599 -0.14015283 -0.09528406 -0.14646731 -0.040061917 0.2754982 0.3114082 0.20883925
0.060670868 0.19488706 0.006525457 -0.30108178 -0.27204138 -0.2884324 -0.07084216 -0.16678655
-0.18032052 0.25525123 0.24046749 0.37012357 0.12903513 -0.009541163 0.18415388 -0.2861405
-0.24013546 -0.35944366 -0.012032576 0.112522 0.08127289 0.051090475 0.059014365 -0.027899306
0.16965112 0.19725771 0.068591155 0.18663293 0.011177591 0.06982787 -0.164445 -0.103772156
0.047899015 0.082414836 0.08053615 0.08507276 0.32096416 0.06449136 0.21693885 -0.26370758
-0.3422824 -0.15193821 -0.19551535 -0.2709807 -0.1650751 0.027965782 -0.22073814 -0.054365285
0.05798963 -0.00079138385 0.07375092 -0.010162419 0.009229111 0.17406148 -0.037397142 -0.07819289
-0.062443208 -0.15989667 -0.2479287 -0.32370934 -0.36317316 -0.28808424 -0.2230514 -0.015185917
-0.110211164 -0.021116568 0.07215344 0.27257544 0.20417137 0.18152593 0.28537306 0.14270584
0.11962714 0.2194215 -0.0149288615 -0.24138655 -0.09870278 -0.2841081 -0.1903504 -0.1162699
-0.07358255 0.1683409 0.09177257 0.12965345 0.19623193 0.1303353 0.21169187 -0.119766206

sequential_1/conv2d_4/Conv2D f4 [64, 3, 3, 32]
00000000: 0baf 96be 1e2c 823c 403b 40be fd41 abbc
00000010: 8b2b 893d 3c96 34bc 85ee f73d c38b eb3d
00000020: f206 893e eb80 46bd 2948 973b cd33 46be
00000030: 7687 4dbe 3292 6abe 730c fabd aaab ffbd
00000040: 2008 8ebe fe4b a4bd 0c10 19be 860e 863d
00000050: 6c33 053e b37a 0bbd dc96 56bd c15c 21be
00000060: 85f4 5abc 3be5 5abd 1a1f 913c 5a4a b9bd
00000070: a58a 0a3e 1de2 18be 3051 c2bd 77a8 29be
00000080: fe1c 0cbe ca3b dbbc cd37 dcbd 5716 2e3e
00000090: e638 5bbd 9428 593e 37a0 043e 0acb 6cbc
000000a0: 444a d73d 4f1e 823e f46a b53e 4ae2 e2ba
000000b0: 5c79 a2be 13be f53d 7a62 0d3e 8578 0fbe
000000c0: 1713 a4bd 7474 90bd 7648 ebbd 2482 9b3d
000000d0: 2cfa 813c d5d5 a8be 116b 01be 9f52 79bd
000000e0: 0100 73bd 9de6 c3bd bede 21bd 5e66 92bc
000000f0: 2f2d 6c3d ac56 213b 967a 5bbc def6 c1bd
00000100: 62cc e5bc 0239 023e 64da 09be 6c13 53bd
00000110: 4dbb 5f3e 082e 943e 837b b93d d8f5 6c3e
00000120: c0a4 3f3d 9b78 fd3d ce0c c0bd c310 503e
00000130: d56f cdbd f1e0 9e3e aaaf 26be 7014 cb3d
00000140: ac06 52be 05b6 28be 68be ec3c d7ef b03e
00000150: e29c bdbd 7bb5 873d b174 b13d 8ad0 99bc
00000160: 2ba6 0e3e bd05 f5bd ab1b 983d 0789 743d
00000170: 97f4 323e 3cb1 6bbe e5bf 9e3d cbde 3cbd
00000180: e3e2 833e 1762 75be 7c0c 51bd 9f72 603e
00000190: 28c1 f33d 63b3 42bd 9ecd c53d c89a 95bd
000001a0: 1034 b33c 289f 673e 6e65 90be 335f 51be
000001b0: eea6 853d 9fbc f5ba 3083 03be 7ce8 84bd
000001c0: c8ce 9cbc 97b1 0dbe 7b9a b2be e050 d9ba
000001d0: 730d 6ebc 8333 23bc 16f2 f63b 37b7 dc3d
000001e0: d355 76bd ae3b c53b 75d8 63bd a225 f63c
000001f0: 31a6 913e ee6a cdbd c0ee 42bd 01d4 f2bd
00000200: 0c1b 323e 2d12 a4bd 8d26 a3be 82c7 73bd
00000210: 7f6c 24bd 4a27 c8bd 0d3c eabd a6bd 13bd
00000220: 773d e3bd d20b 73bd fec8 bbbd 34b4 65be
00000230: 8a50 3cbe 3ded 8f3c 63d9 51bd d803 b9bd
00000240: 1829 25be ec84 91be b7a1 c83b fe62 38be
00000250: 2ac2 cd3d aa9c 28be 686a b1bb d9ff a43d
00000260: 5bd2 2e3c 503b 923c 95f3 d33d eee3 b2bd
00000270: 6e9e 0a3e a1cd f93c 77cd d7bb 1510 04bd
00000280: 58d5 88be edb6 fb3c 6748 843e fcc8 103e
00000290: 61f2 1ebd ceaa 66bd f24a 19be d49a a4bd
000002a0: 0727 5a3e 6f47 bfbd 6628 a0bc 2305 73be
000002b0: 625a 05be 80b4 853d cdd8 0abe 69f0 b9be
000002c0: a11b c43c 15f4 193e 2cbd 873e ca0a 9fbe
000002d0: 9401 273e 316d 13be d50d 2dbe e5b7 123e
000002e0: 2de9 62be 1ca4 4ebb 196b 743d eec5 73bd
000002f0: b7b0 fb3d ef10 52bd e658 86bd 29b7 dbbd
00000300: 37a3 e93d 857e 3bbd 402b cd3d 610d 483d
00000310: 0def dbbd 4386 50be add1 a33d ca41 1a3d
00000320: 360c cd3d a0e3 303e aa83 d43d 78b2 2dbd
00000330: ae10 28be 3228 993d 4950 423d dcc4 a3bc
00000340: b989 87bd 4b81 103e 3b04 c13e c8e7 1cbe
00000350: e8c0 19be 6a37 5fbb 6bdc e5bc ce66 bf3d
00000360: 24b1 31be 225d bbbc 2a71 aabb 0496 e43d
00000370: a22c 8b3e db85 b6bc fd17 083e 938c a5bd
00000380: 6624 603e aa3e 0cbe d923 653d 1692 a73e
00000390: 0ab0 48be 4976 5cbe fd33 9bbd d808 27be
000003a0: 4d6d 8c3e 6b0e 4c3e 5ee0 133d e035 073e
000003b0: 1d42 96be a715 b73c 31a4 6c3e a7a6 3a3d
000003c0: 46ad f63d 98da daba d2e3 0b3e 9e24 3cbd
000003d0: e48a babd d618 a53d d42c 61bd 3d9c 1ebc
000003e0: e486 2fbe 45ea a23d 148e 12be c9c4 343e
000003f0: c53c 893e 918b 543e bf4c 513c 13a8 8e3d
-0.29430422 0.015890177 -0.18772602 -0.02090549 0.06697758 -0.011022147 0.12106041 0.11501267
0.2676311 -0.04846279 0.0046167565 -0.19355698 -0.20071205 -0.22907332 -0.12209406 -0.12483914
-0.27740574 -0.08022307 -0.14947528 0.06545739 0.13007897 -0.034052562 -0.052389964 -0.15758039
-0.013363962 -0.053441267 0.017715026 -0.090473846 0.13529451 -0.14930005 -0.094881415 -0.1656817
-0.13682935 -0.026761908 -0.10752831 0.1700071 -0.05352106 0.21206886 0.12951742 -0.014452705
0.10512212 0.2541375 0.3543316 -0.0017309871 -0.31733215 0.119991444 0.13807097 -0.14010818
-0.080114536 -0.07053462 -0.1148843 0.07593182 0.015866362 -0.3297564 -0.12638499 -0.06086981
-0.059326176 -0.0956547 -0.039519064 -0.017871078 0.057660278 0.002461831 -0.013395926 -0.09470914
-0.028051559 0.12717059 -0.13462216 -0.051532194 0.21848793 0.2894137 0.09056761 0.23140657
0.046787977 0.12376519 -0.09377442 0.20318894 -0.10031096 0.31030992 -0.16277948 0.099160075
-0.20510358 -0.16475685 0.028899387 0.34557983 -0.09258439 0.066264115 0.08664835 -0.018776197
0.13930576 -0.11963985 0.07427152 0.059700992 0.17476116 -0.23016828 0.07751445 -0.04611091
0.25759038 -0.239632 -0.051037297 0.21918724 0.11902076 -0.047534358 0.09658359 -0.07304913
0.021875411 0.22619307 -0.28202385 -0.20446472 0.0652598 -0.001874823 -0.12843013 -0.064896554
-0.01914157 -0.13837276 -0.34883484 -0.0016579889 -0.014529574 -0.009961012 0.007536183 0.10777133
-0.060140442 0.0060190773 -0.05562635 0.030047242 0.28447106 -0.10030161 -0.04759097 -0.11856843
0.1739313 -0.08011279 -0.3186535 -0.059516437 -0.040142532 -0.09773119 -0.11437235 -0.036069535
-0.11095708 -0.059337445 -0.091691956 -0.22432023 -0.18390098 0.017569179 -0.051232707 -0.09033936
-0.16128957 -0.28421724 0.0061227935 -0.18006513 0.100467995 -0.16466013 -0.005414296 0.080566116
0.01067027 0.017850548 0.10349194 -0.087348804 0.13536999 0.03049356 -0.0065857726 -0.0322419
-0.26725268 0.030726874 0.2583649 0.1413917 -0.03880537 -0.056315236 -0.14969996 -0.080373436
0.2130395 -0.09339797 -0.019550513 -0.23732428 -0.1302276 0.06528568 -0.13559265 -0.3631623
0.023938956 0.15034516 0.26511514 -0.3106292 0.16309196 -0.14397122 -0.16899808 0.14327963
-0.22159262 -0.0031530922 0.05967245 -0.059514932 0.12289565 -0.05128568 -0.06559925 -0.107282944
0.11408084 -0.045774955 0.10018015 0.048840884 -0.10738955 -0.20363717 0.07998977 0.037660398
0.10012095 0.17274332 0.103766754 -0.04240653 -0.16412613 0.0747837 0.047439847 -0.01999133
-0.066180654 0.14111821 0.3769854 -0.15322793 -0.15014994 -0.003406013 -0.028059205 0.0934578
-0.1735273 -0.022871558 -0.0052014785 0.11161426 0.2718249 -0.022280624 0.13290401 -0.08083453
0.21888885 -0.1369578 0.05594239 0.32728642 -0.19598404 -0.21529497 -0.07578275 -0.16311967
0.2742714 0.19927375 0.036102645 0.13204145 -0.29347315 0.022349192 0.23109509 0.04556909
0.12044768 -0.0016697226 0.13661125 -0.04593336 -0.091085225 0.08061378 -0.054974392 -0.009680805
-0.171413 0.079548396 -0.14312011 0.17653193 0.26804176 0.20756365 0.012774645 0.06965651

sequential_1/conv2d_5/Conv2D f4 [64, 3, 3, 64]
00000000: c80a fb3d bebf 3bbc b246 443e 42fc 30bd
00000010: dd45 0e3d 9185 dd3c 0225 6ebd 7877 8fbc
00000020: c17e 683d 03a5 8dbe f8e7 0b3e 28f9 aabd
00000030: 9af2 173e 536b 17bb 12bf 24be 54df f93d
00000040: b611 a13d ce06 48be 36a0 853d 20c0 8cbd
00000050: 1516 06be 0f6b 79bd 7e39 973c 41f5 f5bd
00000060: 1221 44be 39f2 a5be 3002 a7bd 1319 34bd
00000070: 784e aebc a70c 99bd 6689 a1bc c96a 343c
00000080: 5af5 7dbe 568e 4dbd ff62 b6bd 427f 453c
00000090: 3fdd 2bbe 8519 9dbc 7091 c6bd 8db5 8b3d
000000a0: a2f7 393e 900b 223d 3738 bdbd 4d36 3bbe
000000b0: c17e 983d 5544 023e 88cc a0be 242e c03d
000000c0: 59a5 5b3e dd6c f1bc 8b42 8d3b 2e1d 4c3d
000000d0: 7746 1a3e 2a68 19bd 6ad1 0b3e 3cf9 89be
000000e0: a2e1 04be 4370 fe3d d37a 33be 4c33 8c3e
000000f0: edf0 2e3d 751f 293d f2ce cbbe 3eb3 80bd
00000100: 978e 3a3e c097 853d 09bd 633e dde7 00be
00000110: 2798 833e 197c 5d3d 5108 5b3d 578a b4bc
00000120: 6a08 993e 4347 96be a7af 0bbe 59e4 aabc
00000130: 92e2 20bc 1c28 91bd 0bba 6abe ea1f 793e
00000140: 146b 4b3e 2b4e cebd 824d 8e3d 60cf adbe
00000150: 2d31 b43d cc1d 79bd 1fc1 44bd b007 2dbd
00000160: 6c50 f5bd 6f60 fdbd 027f b0bc ec31 19bd
00000170: 5272 823d fb9b b0bd da43 f2be f538 2b3d
00000180: dbed 63be e6f6 333c b544 5f3d 5b86 7c3d
00000190: 3607 78bd 8060 9c3d 8d59 0fbe b2ef 16be
000001a0: 47a7 00be ad42 b83d c850 c73c e22d 583e
000001b0: f2d1 503d 90ba 9d3d 5f93 88bd 90dd 3c3d
000001c0: 4263 823e feb1 813d 0b5e 13bd 3d18 ccbd
000001d0: b4f6 9f3e 9da5 1abe 5eff 02bd 19fe 94bd
000001e0: 9e77 473c 708a 5dbd 3f3c 08bf 0ca4 c8be
000001f0: 9a01 be3b 6bcd 5e3e 6c12 41bd c24c 703e
00000200: b572 4b3d 6cd5 383d ad77 c73d 5109 49be
00000210: 26bd e93d bc3f 28be 2c47 8f3d cc51 633e
00000220: 5a35 2cbe 90fe 05bf 1a7f 713e 9fde c1bd
00000230: e62a c43d cdbd 113a 0c8b f4bb 8cb1 903e
00000240: b796 06be 0b9f 5bbe 08e7 f3bc 05e9 8fbe
00000250: fb02 9dbe 5a50 ce3c 162b cfbb 194c e1bd
00000260: 288b 923d 3908 abbe 798f f03d 52f8 933e
00000270: ea0a 363d 0918 c1bd 892c 193e fa0f 9fbb
00000280: 5957 033d 9bca 0a3e f133 ddbd 2e15 923d
00000290: e6d5 d7bd 0aef 4d3c 68d3 823d a099 23bd
000002a0: ee7a 603e f748 6fbd f2ac f9bb d842 4b3e
000002b0: 4c6b 353e d65f 89bc 3fd3 70be 7600 a1bc
000002c0: 8ecc 2fbd 233a ad3d 242e 8cbc 9dd0 06be
000002d0: f6a6 0a3e f43f b8bc 020e a7be 881a 583d
000002e0: 4fe8 3c3e fc81 debd 063e bb3d 33b9 8ebd
000002f0: f61a ba3c 4ca9 cb3e a771 b1be 80d0 863e
00000300: 54be 76be 5492 4b3d 2556 debd e02a 1ebd
00000310: 9bfb edbd 9859 c4bd 0775 61bd bd4b 053e
00000320: 9228 b7bc ceec 0cbe 47bd 983c c03f 893c
00000330: 87c0 c23d 0c3b da3c 9d02 513e 6e57 5bbe
00000340: 3ffa 8c3d ae1b 873d ab23 84bd 15f9 893e
00000350: f8ca 84bd 2f0a cfbc 4a0a d23c ef23 0ebe
00000360: eecd 52be 6f3e b73d d651 3a3e d1e2 e8be
00000370: a5bd 223d ee06 debc 1e14 9d3e 793c babd
00000380: ede0 2d3d ab33 4cbc 418e ff3d 8b82 e538
00000390: 88e0 9dbd 5679 953c 5394 e0bd e7e0 1abe
000003a0: d4f4 93bd 46dd b63d c858 bebd 8293 263e
000003b0: cf9e 1dbe 4aee c33c 9b21 05be b465 6a3e
000003c0: 9709 d8be d623 3e3d e5d6 a0bc 6e71 013f
000003d0: b207 b33c ba65 9d3c 7bab cd3d cce7 c4be
000003e0: 9a00 d9bd a1e2 43be 18be 7e3d 8d97 9bbd
000003f0: f17a 9ebc b31a a53e 1ed2 a83c 7bf0 233c
0.12257916 -0.011459289 0.19167593 -0.04320932 0.034734596 0.027041228 -0.058140762 -0.017513022
0.056761507 -0.27664956 0.13662708 -0.08348304 0.14838639 -0.0023104742 -0.16088513 0.122007996
0.07864706 -0.19533846 0.065246984 -0.068725824 -0.13094361 -0.060893115 0.018460032 -0.12009669
-0.1915324 -0.32411364 -0.08154714 -0.043969225 -0.021277651 -0.07473116 -0.019718837 0.011011788
-0.24800625 -0.05018457 -0.08905601 0.012054266 -0.16783617 -0.019177208 -0.09695709 0.068217374
0.1816087 0.039561808 -0.09239238 -0.18282433 0.074460514 0.12721379 -0.31406045 0.093838006
0.21449794 -0.029470855 0.004310911 0.049832515 0.15065943 -0.037452854 0.13654104 -0.26947963
-0.12976697 0.12423756 -0.17527322 0.27382886 0.042710233 0.041289765 -0.39806324 -0.06284188
0.18218456 0.06523085 0.2224008 -0.12588449 0.2570202 0.054073427 0.053474728 -0.022038622
0.29889232 -0.29351243 -0.13641225 -0.020860838 -0.009819644 -0.070877284 -0.22922532 0.2432858
0.19865066 -0.10073503 0.06948377 -0.33947277 0.08798442 -0.060819432 -0.048035737 -0.04224366
-0.1197823 -0.12371909 -0.021544937 -0.037401125 0.06369461 -0.08623501 -0.47317392 0.041802365
-0.22258703 0.010984158 0.054508884 0.06165157 -0.060553752 0.076355934 -0.13999005 -0.14739874
-0.12563811 0.089970924 0.024330512 0.21111253 0.05098147 0.077015996 -0.06668734 0.046109736
0.25466353 0.063327774 -0.03597836 -0.099655606 0.31242907 -0.15102239 -0.03198182 -0.07275028
0.012174515 -0.054087102 -0.5321693 -0.39187658 0.0057985308 0.21758048 -0.04713671 0.23466781
0.04966994 0.04512541 0.09739623 -0.1963246 0.1141303 -0.16430563 0.06995997 0.22199172
-0.16817227 -0.52341557 0.23583642 -0.0946629 0.09578495 0.00055595936 -0.0074628647 0.28260458
-0.1314343 -0.21447389 -0.02977325 -0.28107467 -0.30666336 0.025184799 -0.006322275 -0.110008426
0.07155448 -0.3340471 0.11746115 0.2890039 0.044444002 -0.094284125 0.14958395 -0.0048541995
0.032065723 0.1355385 -0.10800923 0.07132946 -0.10538845 0.012569198 0.06387979 -0.03994143
0.21921894 -0.058419194 -0.0076194936 0.19849718 0.17716712 -0.016769331 -0.23518084 -0.01965354
-0.042919688 0.08458354 -0.017111845 -0.13165517 0.13540253 -0.022491433 -0.32627875 0.052759677
0.18447994 -0.10864636 0.091426894 -0.06968918 0.022717934 0.397776 -0.34657022 0.26330948
-0.24096042 0.049700096 -0.108562745 -0.038615108 -0.116202556 -0.09587401 -0.055043247 0.13017173
-0.022358213 -0.13762209 0.018644942 0.016754031 0.09509378 0.026639484 0.20411153 -0.2142007
0.06883668 0.06597076 -0.064521156 0.26947847 -0.06484026 -0.02527341 0.025639672 -0.13880895
-0.20586368 0.08947455 0.1819528 -0.45485547 0.03973164 -0.027102914 0.3067941 -0.090935655
0.042450834 -0.0124634905 0.12478305 0.000109438864 -0.077088416 0.018246334 -0.109657906 -0.15124856
-0.07224432 0.08928923 -0.092942774 0.16267207 -0.15392612 0.023917336 -0.130011 0.22890359
-0.42194816 0.046420895 -0.01963372 0.50563705 0.021854255 0.019213546 0.10042473 -0.38458097
-0.10595818 -0.19129421 0.062193006 -0.075972654 -0.019345732 0.32246932 0.020608004 0.0100060655

sequential_1/dense_3/BiasAdd/ReadVariableOp f4 [10]
00000000: ca67 89bd 7f63 d7be 3549 25be 112a c33d
00000010: fd87 9b3e 3441 52bc 38dc 073e cdd5 9bbd
00000020: 3e1c 5ebd 39ba 123e
-0.06709249 -0.42068097 -0.16141208 0.09529508 0.30377188 -0.012832928 0.132676 -0.07609139
-0.054226153 0.14328851

sequential_1/dense_2/BiasAdd/ReadVariableOp f4 [64]
00000000: e22b 9fbc ff85 9c3d 9a2a 2cbd b91b d73e
00000010: ab6a 16bd 4e9a 88bc 5486 0bbe edd8 3b3d
00000020: 945e 69bc a832 1fbd e083 d5bd b8e0 0dbe
00000030: 0eb0 18bd 0754 1abe 7b6e d3bc ce2d 283e
00000040: 0a30 8d3e 2234 05bc 85a6 95bc b05d 36bd
00000050: cee3 a13b 119a 16bd ee65 283e dde2 d13c
00000060: 9f69 653d e978 40bd 082b 23bd 4794 a93e
00000070: 9b0d d73b 454f 1d3e f9d9 c93c 414b 963e
00000080: 23f5 1cbd 5d64 3c3d 78d5 ffbd b6ea 143e
00000090: bd06 8ebd bd44 b13d cbe0 aa3e 1cc0 8f3d
000000a0: 9b69 38be 9e5a 6abe 38ca 23bd 48da 50bd
000000b0: 1a9e a93d 9e6a b13c 2873 243e bce4 a6bd
000000c0: c9ef 80bd 47d5 523c 2809 853e 3b37 c13d
000000d0: 8e9e 1b3e 5740 27be d874 0c3e 9380 5e3e
000000e0: 9b85 b2bb 2b60 2bbd b40b f7bc 8d31 d9bd
000000f0: 559c cd3e da6d c53c 491f 7c3e eb0a e5bd
-0.019430105 0.07642745 -0.042032816 0.42013338 -0.03672282 -0.01667514 -0.13625461 0.045861173
-0.014243741 -0.03886667 -0.10425544 -0.13855255 -0.037277274 -0.15071116 -0.025809517 0.16423723
0.27575713 -0.008130105 -0.01826788 -0.04452294 0.0049404865 -0.036768023 0.16445133 0.025620872
0.05600893 -0.04699031 -0.03983596 0.3312094 0.006562901 0.1536227 0.02464007 0.2935429
-0.038319718 0.04599415 -0.12491888 0.1454266 -0.06934879 0.08655689 0.33374628 0.07019064
-0.18009035 -0.2288613 -0.039987773 -0.05098942 0.082821086 0.021657284 0.16059554 -0.08149096
-0.062957354 0.012868232 0.25983548 0.094343625 0.15197203 -0.16333137 0.13716447 0.21728735
-0.005448056 -0.04183976 -0.030156948 -0.10605154 0.40158334 0.024100233 0.2462131 -0.11183723

sequential_1/dense_2/MatMul f4 [64, 1024]
00000000: 0d9f 09bd 06cf 243d 64ce 343e 5ef2 0bbe
00000010: cbca 17bd a0e0 293c f826 2dbe caed 553d
00000020: b07d 79bd b9b9 533e cf07 573c e076 353e
00000030: 455c 9dbd b501 90be 37f9 8eb9 c1ea cf3d
00000040: 6d41 5b3e 1219 d7bc 88c2 6b3e ed8a 893d
00000050: 52d6 21bd 949c 24bd 8013 0f3d e82a 31be
00000060: 8e2b 553e dfa5 063d fd69 a33b 5022 abbd
00000070: 80cd b0bd 25b6 ca3c f0e5 213d 95a5 483e
00000080: cf14 b2be 6e3c 93bd 1a7f 28bc c409 9abd
00000090: 2d21 5f3d 5a48 33be 722b 8e3d ad47 8ebe
000000a0: 1bd1 71bd b45e 6bbd 94bc bb3d c34f c53c
000000b0: 9496 573d 3c25 8d3e 705f d4be dd67 1d3e
000000c0: e173 1c3e 20bb e1bd 00d8 c2be cf50 cb3d
000000d0: 0b7d 3fbe 2f29 4bbe 39d9 233e 6f12 c2bd
000000e0: a6cb 093c 02ca bd3d 3769 ac3e 9265 d83e
000000f0: 6226 253e 1f5e 083f 3716 643e 941f bb3e
00000100: 7588 7dbe 4e5a 1abe 1afd 31be 4e60 6dbd
00000110: 4aa2 04bd 6c75 573d 81cb 0b3e 992a 5dbd
00000120: a2dd 113e 95c0 91be ad1c 58bd 1df8 0e3e
00000130: 3a95 c63c ccc8 09be d72a 853d 691c af3e
00000140: 2e35 d9bd 6ae0 91bd a7d8 3e3d 6bd0 cdbc
00000150: 14af 963d 07a6 c03d 12fc 1bbd 4e7e e7bd
00000160: feb7 1cbe a436 02bc 9ee1 49bd 529c 113e
00000170: ad12 61bd dafe 793d 5ede babd 32bc 49be
00000180: 6cb4 803e 5d28 3fbe 961a c53c 6ef7 c13e
00000190: 5145 8c3e b8ca 90be ce0d 78bc 22e1 88bd
000001a0: aae1 883d c2b9 293e f832 da3c da02 093c
000001b0: d96d 99bd 35f6 06be 2fa4 a2be 8937 983d
000001c0: 389d 533d 7a10 86be b9dc 113d 9d88 d93d
000001d0: dbb2 cbbe 8360 abbd cb21 b43e 246f a8be
000001e0: c88d 6dbd 3bda 3d3c d729 7fbd 5596 3abd
000001f0: cc9a 813c 8147 fa3d 084e bdbd 37c0 d63e
00000200: 28ed 91be 2ca4 d3bd 8346 bcbe d9ae 9bbd
00000210: f124 acbc e1ad 58bc 3010 df3e dfa4 ca3c
00000220: d2ff 163d 657c 723d 13c5 b7be f810 6f3e
00000230: 422a 483e fe11 fbbc 0e60 c93d 90b4 e9bd
00000240: ce6b c1bd c579 10be 8a7f b43d d2ac a63d
00000250: 76dc 4dbd 1f76 05be b71f c4ba 8414 82bd
00000260: f374 91bd de35 9e3b 4f28 763e 003b 033e
00000270: 169c 563d b047 45bc 5618 a53d c842 dcbd
00000280: 9329 9f3e df9c 91bc df7e 52bd 3145 953d
00000290: 7e4c 8fbd 45c2 bc3c 7754 863d 1702 abbd
000002a0: bc20 913d 8033 e23e eb4a 443d 9914 60bb
000002b0: da85 8fbd e45a 5bbe 19f7 b9be 9395 b33d
000002c0: d7ff 2b3e 51dc 9dbc 94dc 1b3e c568 a53d
000002d0: a906 4cbe 1fce 3bbe 608a 693e 4a06 cabc
000002e0: d8e6 61bd a247 e13c 6305 e0bb 866c 00be
000002f0: 9423 253e 32b8 c5bd 8deb 343e dec7 02bd
00000300: 69fc 1ebe b048 32be d641 eabe 55ec 143e
00000310: fbe9 dbbd dd88 b63c 480b a3bd 11da 50bd
00000320: 2ea2 9cbe f9c2 7c3d 84c2 d6bd a7f8 033e
00000330: 7645 513e dfb0 263e a4a4 a7be f765 ccbe
00000340: be94 943d e3c8 d0be 50df cc3d 5d9c 7e3d
00000350: 7873 15bd 4d98 0abe 9dfa da3c 1d1b 5fbe
00000360: 4f42 91be 2fd4 c83d 5970 acbd 512e eb3e
00000370: 1f27 b53c 66f5 bd3d 1206 803e aa69 f93d
00000380: 4320 a53b d432 fb3e 3ed9 1d3d dbf1 2b3f
00000390: 3616 69be b04c 003e 1fa3 c03b 8894 32bd
000003a0: 7197 6e3d fbec 653e 733f 59bd b0fe ed39
000003b0: a898 9b3d ee8a adbe 87cc 20be 9b47 ac3e
000003c0: f75c 5a3e 6d93 333d 5170 7b3d 6e66 393e
000003d0: d10d d6bd 42a9 1c3e f864 b43e 5a5c 37be
000003e0: 2300 c63d 5364 e0be 344c a0bd 2016 073f
000003f0: 259f 48be d89f 04bd 250f 083e fc8d 813e
-0.03359895 0.040236495 0.17656857 -0.13666674 -0.037058633 0.010368496 -0.16909397 0.052228726
-0.06091088 0.20676316 0.01312442 0.17721128 -0.07683615 -0.28126302 -0.0002727003 0.10152198
0.21411677 -0.026257072 0.23023427 0.06715951 -0.039511032 -0.040188387 0.034930706 -0.17301524
0.20817396 0.03287303 0.004987 -0.08356154 -0.08632946 0.024745056 0.039525926 0.19594415
-0.347815 -0.071892604 -0.01028421 -0.07521394 0.054475 -0.17508069 0.0694188 -0.2778906
-0.05903731 -0.057463363 0.09166828 0.024085885 0.052633837 0.2756747 -0.41479063 0.15371652
0.1527858 -0.110220194 -0.3805542 0.099275224 -0.18700044 -0.19839929 0.16000833 -0.09476172
0.00841037 0.092670456 0.33674023 0.42264992 0.16127923 0.5326862 0.222741 0.3654753
-0.24759085 -0.15073511 -0.17381707 -0.05795317 -0.032381333 0.052602217 0.1365185 -0.053995702
0.14244702 -0.2846724 -0.052761722 0.13961835 0.024241079 -0.13455504 0.06502312 0.34201363
-0.10605846 -0.07122882 0.046593335 -0.025123795 0.07357612 0.09406667 -0.03808219 -0.113033876
-0.15304562 -0.007947598 -0.04928743 0.14219788 -0.05494945 0.06103406 -0.091244444 -0.19700697
0.2513765 -0.18667741 0.024060529 0.37884086 0.27396634 -0.28279662 -0.01514001 -0.06683566
0.06683667 0.16574767 0.026635632 0.008362496 -0.07491655 -0.13179858 -0.31765887 0.074324675
0.051663607 -0.26184446 0.03561089 0.1062176 -0.39784893 -0.083680175 0.35182032 -0.32897294
-0.05799654 0.011587675 -0.06229576 -0.045553524 0.015820883 0.122206695 -0.09243399 0.41943523
-0.28501248 -0.10334048 -0.36772546 -0.07601709 -0.021013709 -0.01322505 0.43567038 0.02473682
0.036865063 0.059200663 -0.35892543 0.23346317 0.1954737 -0.030648228 0.09832774 -0.11411393
-0.0944439 -0.14108951 0.08813389 0.081384316 -0.050259076 -0.13033341 -0.0014963065 -0.06351569
-0.071023844 0.004828199 0.24038814 0.12815475 0.05239495 -0.012041017 0.08061282 -0.10754925
0.31086406 -0.017774997 -0.051390525 0.07288588 -0.069970116 0.023041854 0.06559079 -0.08350008
0.07086322 0.44179916 0.04792301 -0.0034191965 -0.07007952 -0.21421391 -0.36321333 0.087687634
0.16796814 -0.019270094 0.15220863 0.08076624 -0.19924416 -0.18340348 0.22806692 -0.024661202
-0.05515179 0.027499977 -0.0068365796 -0.12541398 0.16126853 -0.09654273 0.1766798 -0.03192889
-0.15525974 -0.1741054 -0.45753354 0.14543279 -0.107379876 0.022282058 -0.07961136 -0.050989214
-0.30592483 0.061709378 -0.1048632 0.12887822 0.20436653 0.16278408 -0.32742798 -0.39921543
0.07254933 -0.40778264 0.10003531 0.06216084 -0.036487073 -0.1353466 0.02673083 -0.21787687
-0.28370902 0.09806096 -0.08419866 0.45933774 0.022113381 0.09275322 0.2500463 0.12178357
0.0050392463 0.49062216 0.038537256 0.6716592 -0.22762379 0.12529254 0.0058788205 -0.04359868
0.058249895 0.22453682 -0.053039026 0.0004539392 0.07597476 -0.33895057 -0.15703021 0.3364838
0.21324526 0.043841768 0.06138641 0.1810548 -0.10451854 0.15298942 0.35233283 -0.17906323
0.09667995 -0.4382654 -0.078270346 0.52768135 -0.19591959 -0.032379 0.13287027 0.25303638

sequential_1/dense_3/MatMul f4 [10, 64]
00000000: a5ec 5c3e 08e4 223d 7e24 723e 2047 f8be
00000010: 61cf aa3c 9bd8 56be beba 8a3d 9b1a b7be
00000020: eb36 f3bc 2a9b de3d 6134 b13e 1be2 2dbd
00000030: af8c b53d c90c f03e 80dd db3d dd2b 053f
00000040: ce1e 8b3c 286e eabd 0d40 76be 4654 fdbd
00000050: 30e3 163b 18fb 74be d1a3 f7bd 83ff 3bbc
00000060: ff9e 973e 9d79 b3be 2e56 24be 63c8 21bd
00000070: 4c4c 17be 8e89 b13d fdf9 04bf a074 b4be
00000080: 29f0 823d eb3d 4e3e aa0b 53bd 4403 ea3d
00000090: a66e eeba 5afa a8be 5ee2 493d ee1e b23e
000000a0: a11d 043e 50b8 1f3e 39c8 0b3e af9d ff3d
000000b0: dfe1 0bbd 3d4e 593e b203 b9be 15af a43e
000000c0: fa42 4bbe 62e8 dcbe 981c 72be aceb 37bf
000000d0: 753d 873e fc83 833e d8ea 0ebf f59f 19bf
000000e0: ef44 b8be 3a57 763d 593f d13d 24a4 223e
000000f0: 90bc dd3d f5ee e5bd eb71 d9be 6223 68bd
00000100: 45fe 5d3e a932 15bf c67a 07be 9a48 f8be
00000110: 3a90 7bbd 3842 f3bd 1dcf c53e d0bd 6c3e
00000120: c93b 8fbd bc0b bdbd 73f7 adbd 6798 c93d
00000130: d8a5 18bf 4c51 33bf c4c7 3bbe 02c2 d3bd
00000140: 4cb3 08bf d056 b43d c142 4f3e b56c 0bbe
00000150: 8954 6a3f a494 cd3d 6293 ef3d b79d 843e
00000160: bcb0 f8bd 9bbd 393e 0a5b 893e 43f1 14bf
00000170: 1d70 a43e e4d4 9b3e 6abb 9d3e 20a3 fcbd
00000180: e5a3 4fbe d19d b9be 66c7 5b3d 5a9c c33d
00000190: ceb9 10be 3689 df3d 7491 b8be dea9 1c3d
000001a0: 56a4 803e 9f40 193e 4a47 a73d 489f b03d
000001b0: 8b38 e3bd 1229 903e 2fee eabd fa15 d13e
000001c0: b2ff 52be 30e1 9e3e f49a 5ebe ec09 febd
000001d0: 1bb0 1f3e 6280 1dbe 85cb 05bd 42e0 00bf
000001e0: cc15 14be 78de 78be 074f 28be b93e f7be
000001f0: 5a7b 1cbe 108d 09bf c89c 45be e32a 363f
00000200: d517 353e 7c2d d33e ab20 80bd b933 4cbc
00000210: 5284 d13d 7074 9bbd 12f3 d8bc 49e2 d63e
00000220: 6637 e73c 2ce9 a0be 3095 17bf b722 753f
00000230: 8e37 a33e fca9 59be 8b6a 473d 4a24 49be
00000240: e590 563e 13f3 3c3e 4a1c d63e f5ed 8d3e
00000250: 3f4b 32bd 4018 bcbc e225 f4be 091b 1fbe
00000260: 508c 1cbd af66 2b3e bc13 7ebe 87b6 78bd
00000270: ca53 a6bd 32fc d3be 6d13 6b3e c665 73be
00000280: 8505 783e c268 613d f24f 55be 0a4d 23be
00000290: 77f5 a53d aaeb 83bd f52a fdbd 5113 c93e
000002a0: 5c91 10be c82f fe3d e4ce dabd dd02 4b3e
000002b0: 9654 16be 1833 c3bd d8fe 043e 4c19 0cbe
000002c0: 82fe 883e fc8e 303e 3381 38bd 2cc4 9cbd
000002d0: 3124 bcbe 7500 a83e bb3b c83e 387d 08bf
000002e0: 5b34 d4be e7b5 8dbe 648a 28be 947c 223e
000002f0: 0ce7 b6be 14a8 a4be 80d7 c5be 376b 1ebf
00000300: 3d14 92be 66c0 cbbd b2a7 443e 535c 0abd
00000310: 4b38 97bc c0d7 563e a9c9 a8be a435 91be
00000320: eb93 26be d664 74be bd51 29bc 922c b2bd
00000330: 3da2 3fbd 3e12 69be fecc 85bc bdb8 39be
00000340: 7075 5f3e 71cf 11be 55cc a5be 36a5 a7bc
00000350: 05f2 c23e e607 253d a79b 47be b9a0 87bd
00000360: 7017 57be b89a 1fbe d472 803e ae07 713e
00000370: b6c8 e2be 8fe9 823c b12a 2fbd c4a1 fe3d
00000380: 4116 26bd 59fb 6dbd 2789 543e 4cb2 a83e
00000390: d370 bb3d e26a 81bd f35e d5be bf7c 7bbe
000003a0: 0e8a 443e 1db6 e3b9 d641 db3d ff6c 1c3e
000003b0: 1d19 09be 1df7 dfbd bb5a 3e3e 1660 4f3e
000003c0: 8a74 47bf b3db 293e 19c9 7d3e b1b8 ca3e
000003d0: 4f54 28be 1a21 1a3e 24bb 0abe 2afc e5ba
000003e0: cec2 16bf 9ea9 663e 713e 1e3e 162a 56be
000003f0: 372a 89be c87d a4be 7efc 3d3f dba3 183f
0.21574648 0.03976825 0.23646733 -0.48491764 0.02085084 -0.20981066 0.067738995 -0.35762486
-0.029689273 0.10869439 0.34610274 -0.04245196 0.08864724 0.46884754 0.10735607 0.52020055
0.016982462 -0.11446792 -0.24047871 -0.123695895 0.0023023598 -0.2392391 -0.120917924 -0.011474493
0.29613492 -0.3505372 -0.160485 -0.039497744 -0.14775199 0.086688146 -0.5194395 -0.35245228
0.06393463 0.20140807 -0.051524796 0.11426404 -0.0018190935 -0.33003503 0.049288146 0.34789222
0.12901928 0.15597653 0.13650598 0.12481248 -0.034150954 0.21221252 -0.36135632 0.32164827
-0.19849768 -0.43146044 -0.2364372 -0.7184398 0.26414075 0.25686634 -0.55827093 -0.600097
-0.35990092 0.06014178 0.10217161 0.15882927 0.10826981 -0.11227218 -0.42469725 -0.05667437
0.21679027 -0.58280426 -0.13230428 -0.4849289 -0.061416842 -0.118778646 0.38634577 0.23119283
-0.06993825 -0.09230754 -0.08494463 0.098435216 -0.5962806 -0.70045924 -0.18337923 -0.103397384
-0.53398585 0.08805621 0.20240308 -0.13615687 0.9153524 0.100381166 0.11698033 0.25901577
-0.121430844 0.18138735 0.2682727 -0.58180636 0.32116786 0.3043586 0.30807048 -0.12335801
-0.20277365 -0.36253217 0.053656958 0.09551306 -0.14133379 0.10914843 -0.36048472 0.038247935
0.25125378 0.14966057 0.08167894 0.086241305 -0.11094769 0.28156334 -0.11471211 0.4083708
-0.20605353 0.3103118 -0.21738797 -0.12404236 0.15594523 -0.15381005 -0.032664794 -0.5034219
-0.1446144 -0.24303615 -0.16436397 -0.4829004 -0.1528143 -0.5373087 -0.19298089 0.7115919
0.17684872 0.4124564 -0.06256231 -0.0124635035 0.10230316 -0.07590568 -0.026483092 0.41969517
0.028224658 -0.31427896 -0.5921202 0.95756096 0.31878322 -0.2125625 0.04868559 -0.1964275
0.2095371 0.184521 0.41818458 0.2772061 -0.04352879 -0.022960782 -0.47685152 -0.15537657
-0.03821975 0.1673839 -0.24812216 -0.060720947 -0.0812145 -0.41403347 0.22956629 -0.23769292
0.24220856 0.055031545 -0.20831278 -0.15947357 0.08103459 -0.06441434 -0.12361709 0.3927255
-0.1411795 0.12411457 -0.106839925 0.19825311 -0.14680704 -0.0953123 0.1298784 -0.13681525
0.26756674 0.17242044 -0.04504509 -0.07654604 -0.36746362 0.3281285 0.3910807 -0.5331607
-0.41446194 -0.27677843 -0.16459042 0.15867835 -0.3572315 -0.32159483 -0.38640976 -0.61882347
-0.28531066 -0.099488065 0.19204596 -0.033779453 -0.01845946 0.2098074 -0.32966354 -0.28361237
-0.16267364 -0.23866591 -0.010334429 -0.08699907 -0.04678558 -0.22760865 -0.0163331 -0.18136878
0.21822143 -0.14239289 -0.32382455 -0.02046452 0.3807527 0.040290736 -0.1949297 -0.06622452
-0.21005034 -0.15586364 0.25087607 0.23538086 -0.44293755 0.01598051 -0.042765323 0.12433198
-0.040548567 -0.058101032 0.20755444 0.3294853 0.09152379 -0.063192144 -0.41674003 -0.24559306
0.19193289 -0.000434325 0.107059166 0.15275954 -0.13388486 -0.10935805 0.18589298 0.20251498
-0.779122 0.16587715 0.24783744 0.39594033 -0.16438411 0.1505169 -0.13547951 -0.0017546464
-0.58891 0.22525641 0.15453507 -0.20914492 -0.2679002 -0.32127213 0.742134 0.59625024
